…
Model name: nlos_nn_v2_itof_out_add_layer_aug_straight_trhough_8
Learning rate: 0.0001
Encoder channels: (7, 32, 64, 128, 256, 512)
Decoder channels: (512, 256, 128, 64, 32)
Number of output channels: 16
Number of additional CNN layers: 0
Number of epochs: 1500
Data augmentation: 403
Device: cuda:0


--- NETWORK SUMMARY ---
==========================================================================================
Layer (type:depth-idx)                   Output Shape              Param #
==========================================================================================
NlosNetItof                              [32, 2, 320, 240]         --
├─Encoder: 1-1                           [32, 32, 320, 240]        --
│    └─ModuleList: 2-9                   --                        (recursive)
│    │    └─Block: 3-1                   [32, 32, 320, 240]        11,296
│    └─MaxPool2d: 2-2                    [32, 32, 160, 120]        --
│    └─ModuleList: 2-9                   --                        (recursive)
│    │    └─Block: 3-2                   [32, 64, 160, 120]        55,424
│    └─MaxPool2d: 2-4                    [32, 64, 80, 60]          --
│    └─ModuleList: 2-9                   --                        (recursive)
│    │    └─Block: 3-3                   [32, 128, 80, 60]         221,440
│    └─MaxPool2d: 2-6                    [32, 128, 40, 30]         --
│    └─ModuleList: 2-9                   --                        (recursive)
│    │    └─Block: 3-4                   [32, 256, 40, 30]         885,248
│    └─MaxPool2d: 2-8                    [32, 256, 20, 15]         --
│    └─ModuleList: 2-9                   --                        (recursive)
│    │    └─Block: 3-5                   [32, 512, 20, 15]         3,539,968
│    └─MaxPool2d: 2-10                   [32, 512, 10, 7]          --
├─Decoder: 1-2                           [32, 32, 320, 240]        --
│    └─ModuleList: 2-17                  --                        (recursive)
│    │    └─ConvTranspose2d: 3-6         [32, 256, 40, 30]         524,544
│    └─ModuleList: 2-18                  --                        (recursive)
│    │    └─Block: 3-7                   [32, 256, 40, 30]         1,769,984
│    └─ModuleList: 2-17                  --                        (recursive)
│    │    └─ConvTranspose2d: 3-8         [32, 128, 80, 60]         131,200
│    └─ModuleList: 2-18                  --                        (recursive)
│    │    └─Block: 3-9                   [32, 128, 80, 60]         442,624
│    └─ModuleList: 2-17                  --                        (recursive)
│    │    └─ConvTranspose2d: 3-10        [32, 64, 160, 120]        32,832
│    └─ModuleList: 2-18                  --                        (recursive)
│    │    └─Block: 3-11                  [32, 64, 160, 120]        110,720
│    └─ModuleList: 2-17                  --                        (recursive)
│    │    └─ConvTranspose2d: 3-12        [32, 32, 320, 240]        8,224
│    └─ModuleList: 2-18                  --                        (recursive)
│    │    └─Block: 3-13                  [32, 32, 320, 240]        27,712
├─Conv2d: 1-3                            [32, 16, 320, 240]        528
├─FinalConv: 1-4                         [32, 2, 320, 240]         --
│    └─ModuleList: 2-23                  --                        (recursive)
│    │    └─Conv2d: 3-14                 [32, 8, 320, 240]         1,160
│    └─ReLU: 2-20                        [32, 8, 320, 240]         --
│    └─ModuleList: 2-23                  --                        (recursive)
│    │    └─Conv2d: 3-15                 [32, 4, 320, 240]         292
│    └─ReLU: 2-22                        [32, 4, 320, 240]         --
│    └─ModuleList: 2-23                  --                        (recursive)
│    │    └─Conv2d: 3-16                 [32, 2, 320, 240]         74
├─StraightThroughEstimator: 1-5          [32, 2, 320, 240]         --
├─StraightThroughEstimator: 1-6          [32, 320, 240]            --
==========================================================================================
Total params: 7,763,270
Trainable params: 7,763,270
Non-trainable params: 0
Total mult-adds (G): 521.62
==========================================================================================
Input size (MB): 68.81
Forward/backward pass size (MB): 6566.71
Params size (MB): 31.05
Estimated Total Size (MB): 6666.57
…
